harmonianet-backend/harmonianet.pth (torch, 636351 bytes, 22 tensors)

net.0.weight f4 [16, 1, 3, 3]
0.30707306 -0.17440887 -0.09951173 -0.01762163 -0.11022661 0.06169501 -0.3821411 0.1640755
0.26656622 0.35169718 -0.20629476 -0.2589719 0.124320686 0.21126887 -0.13150385 -0.03808132
-0.2136594 0.12002863 -0.17358534 -0.10764105 -0.02132596 -0.305444 -0.35511005 -0.2132631
-0.3438465 0.2212459 -0.1818478 -0.21835421 0.05528818 0.11469671 -0.06490614 0.37077716
0.13488434 -0.031272657 -0.10115061 -0.14667991 0.22581238 0.12476964 0.12709266 -0.03109074
-0.091901705 -0.24728683 -0.11031804 0.013183094 -0.18566847 -0.028676 0.22133404 -0.04158215
0.37789324 -0.07338967 0.06559127 0.10830689 -0.32796448 -0.2144412 0.25440118 0.17495109
0.15215077 0.009794894 -0.15462795 0.14313194 0.07553183 -0.2328483 -0.30432743 -0.10154677
0.21387736 -0.27071154 0.14618018 0.075930744 -0.17611358 -0.13602534 0.24107757 -0.19705723
0.29930556 -0.18362328 -0.13232179 0.11615551 0.30776718 -0.25779092 0.13735665 -0.09661183
-0.24636754 0.054672588 0.28995854 -0.3459865 -0.026925325 0.32066154 -0.24992889 -0.05699554
0.22982065 -0.1191923 0.056289963 -0.34215358 -0.10474404 -0.06035129 0.27048126 0.086755425
0.27924657 0.010206498 -0.11595996 -0.16584717 -0.3136105 0.2585611 0.11187592 -0.20601381
0.03245352 0.092681766 0.013151838 0.15264308 -0.3035688 -0.31648907 0.24411225 0.22038406
0.23559883 0.3056574 0.04967186 -0.11294016 -0.3228765 -0.13374992 0.17411983 0.10312794
-0.09334848 0.22681504 -0.29415894 0.31200793 -0.108630955 -0.18652487 0.13955054 0.10388109
-0.48265052 -0.06741327 0.2275783 0.086031936 0.36989626 0.09199234 -0.021590067 -0.15115942
-0.17990106 0.008403375 0.27638292 0.2990138 -0.023101248 -0.15816312 -0.2786949 0.18231083
00000000: ae38 9d3e 3d98 32be cecc cbbd 3d5b 90bc
00000010: 7dbe e1bd e8b3 7c3d 00a8 c3be 6803 283e
00000020: 5e7b 883e a711 b43e ef3e 53be f797 84be
00000030: d89b fe3d de56 583e f2a8 06be 28fb 1bbd
00000040: 88c9 5abe 92d1 f53d 5bc0 31be e972 dcbd
00000050: c8b3 aebc 2863 9cbe fcd0 b5be a461 5abe
00000060: a60c b0be 498e 623e 4f36 3abe 3f98 5fbe
00000070: dc75 623d 1ce6 ea3d 83ed 84bd 81d6 bd3e
00000080: 1f1f 0a3e c217 00bd 0d28 cfbd 4233 16be
00000090: 5c3b 673e 3a87 ff3d 9424 023e 02b2 febc
000000a0: f636 bcbd c238 7dbe 6dee e1bd e7fd 573c
000000b0: e01f 3ebe eee9 eabc 64a5 623e 0b52 2abd
000000c0: 397b c13e 534d 96bd b754 863d 01d0 dd3d
000000d0: f6ea a7be 7996 5bbe df40 823e 6126 333e
000000e0: 69cd 1b3e c37a 203c ca56 1ebe 2e91 123e
000000f0: 6fb0 9a3d c96f 6ebe ced0 9bbe c1f7 cfbd
00000100: ab02 5b3e b49a 8abe 42b0 153e 9481 9b3d
00000110: 1e57 34be 3a4a 0bbe 0add 763e 5fc9 49be
00000120: 943e 993e be07 3cbe 5d7f 07be f1e2 ed3d
00000130: a993 9d3e 2cfd 83be 39a7 0c3e 6cdc c5bd
00000140: c647 7cbe 5df0 5f3d 7275 943e 2425 b1be
00000150: 8092 dcbc c02d a43e 5ced 7fbe 2874 69bd
00000160: 1b56 6b3e 181b f4bd 4e90 663d c12e afbe
00000170: 0b84 d6bd ea32 77bd 857c 8a3e d4ac b13d
00000180: 68f9 8e3e 2839 273c 6a7c edbd d7d3 29be
00000190: 8e91 a0be 1f62 843e 341f e53d 49f5 52be
000001a0: fbed 043d f0cf bd3d cf7a 573c 784e 1c3e
000001b0: 5f6d 9bbe db0a a2be 90f8 793e 5cac 613e
000001c0: d240 713e 207f 9c3e b874 4b3d 2c4d e7bd
000001d0: 1250 a5be bdf5 08be 784c 323e be34 d33d
000001e0: 7d2d bfbd 3442 683e 009c 96be 81bf 9f3e
000001f0: e879 debd 6000 3fbe 56e6 0e3e 9cbf d43d
00000200: f81d f7be f80f 8abd 490a 693e 8331 b03d
00000210: 0b63 bd3e 7b66 bc3d a7dd b0bc 89c9 1abe
00000220: fc37 38be 4fae 093c 1082 8d3e 5618 993e
00000230: d43e bdbc 83f5 21be 19b1 8ebe b1af 3a3e

net.0.bias f4 [16]
0.052280433 0.0024106891 0.107382335 -0.30661693 0.25900984 0.27647245 -0.26336613 -0.3166889
-0.22855711 -0.07670664 -0.17131838 0.20776282 0.24321328 0.32498202 0.028758707 0.026076213
00000000: 0224 563d a7fc 1d3b 45eb db3d e5fc 9cbe
00000010: f09c 843e cc8d 8d3e edd7 86be 0c25 a2be
00000020: e00a 6abe 5f18 9dbd 166e 2fbe c7bf 543e
00000030: e70c 793e 0b64 a63e 6197 eb3c c89d d53c

net.1.weight f4 [16]
1.1183026 0.8671415 0.8061372 0.9481677 0.93169266 0.92096853 0.8602004 0.8142917
0.97661483 1.1152544 0.9445676 1.1297104 1.124318 1.1060692 0.8874186 1.1941097
00000000: 8a24 8f3f fcfc 5d3f 025f 4e3f 1ebb 723f
00000010: 6983 6e3f 98c4 6b3f 1836 5c3f 6c75 503f
00000020: 6e03 7a3f a8c0 8e3f 2fcf 713f 5a9a 903f
00000030: a7e9 8f3f ad93 8d3f de2d 633f 96d8 983f

net.1.bias f4 [16]
-0.17693795 0.007087065 -0.2029953 -0.13441916 -0.19355533 -0.104480445 -0.0926927 -0.13873164
0.21865892 -0.1787933 -0.10874343 0.24083032 -0.04913656 -0.011932151 -0.23565155 -0.06559841
00000000: 392f 35be 9c3a e83b 00de 4fbe 2da5 09be
00000010: 5e33 46be d8f9 d5bd acd5 bdbd ab0f 0ebe
00000020: 20e8 5f3e 9715 37be e0b4 debd 399c 763e
00000030: 6b43 49bd 127f 43bc a44e 71be 7658 86bd

net.1.running_mean f4 [16]
-0.5595434 1.7026526 64.63985 -5.3865633 8.07942 -3.543997 -5.213024 8.478217
2.174091 -4.2903724 -3.8607137 1.2221229 -0.043247588 0.37816882 -19.603613 0.8325343
00000000: 3c3e 0fbf 85f0 d93f 9a47 8142 ba5e acc0
00000010: 4e45 0141 d9d0 62c0 18d1 a6c0 c7a6 0741
00000020: 4f24 0b40 bb4a 89c0 ef15 77c0 866e 9c3f
00000030: 6224 31bd 589f c13e 33d4 9cc1 f820 553f

net.1.running_var f4 [16]
3.8525124 8.406446 525.606 14.722345 23.628237 22.996397 33.746212 14.193653
16.529245 10.518402 12.359835 10.115293 22.432503 4.764111 66.32065 11.2997265
00000000: 908f 7640 ce80 0641 c966 0344 ba8e 6b41
00000010: a106 bd41 9ff8 b741 1ffc 0642 3419 6341
00000020: e53b 8441 604b 2841 e2c1 4541 3dd8 2141
00000030: c475 b341 9973 9840 2ca4 8442 aecb 3441

net.4.weight f4 [32, 16, 3, 3]
0.02848361 0.0062703034 0.07224561 -0.06439696 0.016140448 0.15044905 -0.15213081 -0.007759404
-0.046130344 0.14112486 0.01393537 -0.023691375 -0.112034604 -0.014555524 0.10150082 0.03314852
0.17070432 0.094529346 -0.12980591 -0.11772532 -0.06879336 -0.03978852 0.045356035 -0.039006464
-0.019464202 0.05402194 0.027082443 0.12643158 -0.057736643 -0.14439774 -0.060961463 0.0289574
0.110790946 0.0079365615 -0.06564578 -0.112499595 -0.095140986 -0.15493308 -0.041724615 0.021893091
0.11608212 -0.043372657 -0.053901933 -0.054690175 0.06836565 0.15071937 0.050812673 -0.10281473
-0.009212649 0.0108662825 0.10259229 0.03351034 -0.0628996 -0.10885513 0.017937716 0.0080703655
-0.04034303 0.026400287 0.0087262355 0.10146465 -0.017319947 -0.12805332 -0.018203001 -0.08473569
0.06708628 -0.049246445 0.05108353 -0.008529952 0.058144517 -0.010438199 0.04285094 0.05633753
0.10218553 0.049927402 -0.01523696 -0.057776853 0.0023730018 0.050121933 -0.034168653 0.072163746
-0.0018123251 -0.009437894 0.14631715 0.10859711 0.059429266 0.07391009 0.012771164 -0.0882564
0.021427872 -0.06520208 0.043513715 -0.07566024 -0.056026157 0.14418826 -0.009965287 -0.08539166
-0.05798494 0.06944693 -0.03300392 -0.05735698 -0.054191694 0.026166638 0.09842174 0.107450284
-0.023551822 -0.10387799 -0.06073373 0.010257514 0.17241599 -0.060667828 -0.32592112 -0.11552409
0.124740474 0.1696464 -0.11005218 -0.08650618 -0.022816362 -0.09972973 0.0028666414 0.13890356
0.097245015 0.036428176 -0.098065645 -0.14928953 -0.00939096 0.107038334 0.093841225 0.033280786
-0.018208545 -0.012029776 0.0054497053 0.039291676 0.06032181 -0.08270222 0.01007072 0.21172062
0.18173595 -0.23388946 -0.18127088 0.047331396 0.048072804 -0.005455382 0.13852455 -0.013359436
0.16896755 0.1515994 -0.12840566 0.13124965 0.035443015 0.007604193 0.21795937 0.07806829
-0.14562257 -0.07181968 0.06828339 0.04487211 -0.01678233 0.07203565 0.009181032 0.12309939
0.038803376 0.0030476968 -0.048753858 -0.13679494 -0.0784354 -0.102422014 0.02821153 -0.030088626
-0.08435257 0.06743103 0.09662575 0.087656386 0.10739375 -0.03914283 -0.015161674 0.020373613
0.03139023 -0.10103339 0.015329441 -0.07327908 -0.14690368 -0.17805 -0.050082352 0.044785127
-0.06279076 -0.012815478 0.05383916 -0.0129606435 -0.05808663 0.029011238 0.053144902 -0.024293374
-0.008071993 0.029751986 0.10217515 -0.075361356 -0.004392563 -0.053997997 -0.035921425 -0.028760783
-0.17062545 -0.082633145 0.037230067 -0.026450688 0.035822492 0.04188474 -0.100904055 0.03282597
-0.08172513 -0.007811191 -0.0259451 0.049707834 0.041770037 -0.014947969 -0.05991127 0.07574453
0.08077916 0.011983083 -0.054340344 0.046206526 0.039477628 0.077650756 0.05307675 0.019786209
-0.008070868 -0.0028238618 0.09603107 -0.12634759 0.071206145 -0.0123742875 -0.06298218 0.009935268
0.08833136 -0.092544354 -0.20104241 -0.011348478 -0.05779043 0.032423895 -0.0009331993 0.029352084
-0.018725509 -0.04121914 0.03312826 0.1459333 -0.19764645 -0.14222163 0.112736985 -0.19354266
-0.065814465 0.10791322 -0.082543485 -0.08591223 0.12514544 -0.06956395 -0.03597662 0.19724597
00000000: 7656 e93c 1e77 cd3b 82f5 933d 8ee2 83bd
00000010: f938 843c 510f 1a3e 2ec8 1bbe 9942 febb
00000020: 2cf3 3cbd 0983 103e 2e51 643c 6a14 c2bc
00000030: 6672 e5bd 4b7a 6ebc a9df cf3d bec6 073d
00000040: 1dcd 2e3e 9a98 c13d d7eb 04be f919 f1bd
00000050: 88e3 8cbd 4af9 22bd 40c7 393d 3ec5 1fbd
00000060: 6473 9fbc 1c46 5d3d 00dc dd3c 4877 013e
00000070: 427d 6cbd 00dd 13be bab2 79bd 1238 ed3c
00000080: 5de6 e23d 5a08 023c 4b71 86bd 3066 e6bd
00000090: 47d9 c2bd c7a6 1ebe 6ee7 2abd 2459 b33c
000000a0: 76bc ed3d 87a7 31bd 46c8 5cbd ce02 60bd
000000b0: 4a03 8c3d 2e56 1a3e f320 503d 8790 d2bd
000000c0: a7f0 16bc 7e08 323c e81b d23d 2342 093d
000000d0: 81d1 80bd 70ef debd 1ef2 923c 9139 043c
000000e0: bc3e 25bd 6a45 d83c 7cf8 0e3c b3cc cf3d
000000f0: 90e2 8dbc 6920 03be 761e 95bc e889 adbd
00000100: 8864 893d a4b6 49bd f73c 513d 36c1 0bbc
00000110: f228 6e3d fb04 2bbc 7884 2f3d 2fc2 663d
00000120: a646 d13d ad80 4c3d 71a4 79bc 6ca7 6cbd
00000130: 5d84 1b3b a84c 4d3d 6ef4 0bbd 96ca 933d
00000140: 8a8b edba 66a1 1abc 2ad4 153e 2968 de3d
00000150: 1a6c 733d 2c5e 973d 253e 513c c5bf b4bd
00000160: 8189 af3c ab88 85bd 703b 323d c2f3 9abd
00000170: af7b 65bd 16a6 133e 7145 23bc d3e1 aebd
00000180: 9e81 6dbd 313a 8e3d 1e2f 07bd 27ef 6abd
00000190: 1cf8 5dbd 6b5b d63c 5691 c93d e50e dc3d
000001a0: c0ef c0bc fcbd d4bd efc3 78bd 220f 283c
000001b0: d18d 303e d47e 78bd 22df a6be e597 ecbd
000001c0: ef77 ff3d c9b7 2d3e 0a63 e1bd 272a b1bd
000001d0: 61e9 babc 1a3f ccbd 43de 3b3b bc3c 0e3e
000001e0: 6528 c73d b635 153d a4d6 c8bd 5bdf 18be
000001f0: 8bdc 19bc ea36 db3d d42f c03d 6f51 083d
00000200: 162a 95bc 8a18 45bc 7193 b23b 4ff0 203d
00000210: 0114 773d c85f a9bd a9ff 243c 4acd 583e
00000220: fd18 3a3e b880 6fbe 139f 39be 91de 413d
00000230: fde7 443d 10c3 b2bb 61d9 0d3e 89e1 5abc
00000240: d405 2d3e e03c 1b3e c67c 03be 4f66 063e
00000250: b22c 113d 982c f93b be30 5f3e 45e2 9f3d
00000260: 151e 15be 3216 93bd 29d8 8b3d d1cb 373d
00000270: 197b 89bc 6d87 933d 0a6c 163c 881b fc3d
00000280: 4af0 1e3d debb 473b 20b2 47bd f913 0cbe
00000290: bda2 a0bd a2c2 d1bd de1b e73c 6c7c f6bc
000002a0: 0ac1 acbd 4819 8a3d b9e3 c53d 3185 b33d
000002b0: 41f1 db3d 3b54 20bd ab68 78bc 90e6 a63c
000002c0: 0b93 003d 98ea cebd 5628 7b3c 5813 96bd
000002d0: eb6d 16be bd52 36be 2723 4dbd 9c70 373d
000002e0: 7198 80bd 03f8 51bc 7386 5c3d e158 54bc
000002f0: 3fec 6dbd faa8 ed3c 78ae 593d e602 c7bc
00000300: 6440 04bc 70ba f33c 3441 d13d 0e57 9abd
00000310: 7def 8fbb 012d 5dbd 5822 13bd bc9b ebbc
00000320: 70b8 2ebe 913b a9bd 8e7e 183d 1daf d8bc
00000330: 9bba 123d 558f 2b3d c9a6 cebd 8674 063d
00000340: 815f a7bd 05f5 ffbb d18a d4bc 719a 4b3d
00000350: 0f17 2b3d 53e8 74bc 8565 75bd f31f 9b3d
00000360: 8b6f a53d b154 443c fb93 5ebd 0e43 3d3d
00000370: 4bb3 213d 5c07 9f3d 0267 593d b016 a23c
00000380: ad3b 04bc 8a10 39bb f0ab c43d 4361 01be
00000390: 87d4 913d 86bd 4abc cdfc 80bd 89c7 223c
000003a0: 12e7 b43d e587 bdbd 10de 4dbe f7ee 39bc
000003b0: a8b5 6cbd ebce 043d f2a1 74ba c873 f03c
000003c0: 3d66 99bc 67d5 28bd 80b1 073d 8a6f 153e
000003d0: d563 4abe 8ca2 11be a6e2 e63d 0c30 46be
000003e0: bcc9 86bd 9b01 dd3d 8f0c a9bd c0f2 afbd
000003f0: 2026 003e 8b77 8ebd 385c 13bd d9fa 493e

net.4.bias f4 [32]
0.016662003 0.07451807 -0.050894756 0.045158353 0.00268445 0.08925096 -0.016264671 -0.018683877
0.037645623 0.028660243 0.025972404 -0.09134895 -0.05972468 -0.00813847 0.021850485 -0.0299573
-0.05286947 0.07241288 0.040422115 -0.037245173 -0.04183506 0.034531716 0.06298856 -0.0523179
-0.056297936 -0.056163907 0.03858445 0.058200147 -0.02744975 -0.049733452 -0.020355597 -0.019112876
00000000: c17e 883c ee9c 983d 0577 50bd f7f7 383d
00000010: 99ed 2f3b 35c9 b63d 7d3d 85bc ee0e 99bc
00000020: 4c32 1a3d e3c8 ea3c 14c4 d43c 2915 bbbd
00000030: dea1 74bd 3857 05bc caff b23c 0369 f5bc
00000040: a88d 58bd 344d 943d a991 253d 658e 18bd
00000050: 3d5b 2bbd 2171 0d3d 2500 813d 4b4b 56bd
00000060: aa98 66bd 200c 66bd ba0a 1e3d 4763 6e3d
00000070: 4cde e0bc 4eb5 4bbd c8c0 a6bc 9b92 9cbc

net.5.weight f4 [32]
0.87570834 0.9359261 0.79679626 0.9337528 0.9268484 0.93349206 0.90999585 0.9734974
0.8779003 0.9761997 0.93788147 1.0707833 1.0784465 1.1184132 0.88596666 0.9898453
0.95994663 1.0499785 0.9737578 0.98507845 0.906299 1.0180869 0.9475962 0.86794984
1.002259 1.0066018 0.9484995 1.040211 0.9494961 0.900327 0.9912101 0.905381
00000000: 6c2e 603f da98 6f3f d7fa 4b3f 6c0a 6f3f
00000010: f045 6d3f 56f9 6e3f 7df5 683f 2037 793f
00000020: 13be 603f 39e8 793f 0019 703f 6d0f 893f
00000030: 890a 8a3f 2a28 8f3f b6ce 623f 8066 7d3f
00000040: 10bf 753f b265 863f 3148 793f 1a2e 7c3f
00000050: 3603 683f ac50 823f aa95 723f f631 5e3f
00000060: 064a 803f 54d8 803f ddd0 723f a225 853f
00000070: 2d12 733f d57b 663f f2bf 7d3f 0dc7 673f

net.5.bias f4 [32]
-0.5334527 -0.07310814 -0.28527638 -0.42029932 -0.21918301 -0.35682702 -0.4265783 -0.5558517
-0.30406544 -0.17973666 -0.4000296 -0.38907674 -0.29089087 -0.23742028 -0.35065025 -0.062475447
-0.38434687 -0.5312723 -0.28303808 -0.31920874 -0.25236577 -0.49302748 -0.33850178 -0.32060045
-0.17658652 -0.2521539 -0.36692375 -0.5420084 -0.4953889 -0.40737635 -0.21122448 -0.2667663
00000000: 5b90 08bf b8b9 95bd bf0f 92be 7931 d7be
00000010: 8371 60be 08b2 b6be 7968 dabe 4c4c 0ebf
00000020: 77ae 9bbe e30c 38be aed0 ccbe 1135 c7be
00000030: a6ef 94be 4d1e 73be 6e88 b3be 41e6 7fbd
00000040: 1dc9 c4be 7601 08bf 5eea 90be 546f a3be
00000050: 1636 81be 196e fcbe 1b50 adbe be25 a4be
00000060: 19d3 34be 511a 81be 6edd bbbe 10c1 0abf
00000070: 9da3 fdbe a293 d0be 3b4b 58be 9895 88be

net.5.running_mean f4 [32]
0.30690402 1.7204618 -1.795598 -0.3551666 -4.1174545 -2.071598 -0.19239676 -1.2689977
-1.6822712 -3.3176467 3.2105238 -1.0040363 -0.41004497 -1.5009669 0.88241017 -2.1908844
-0.7665541 -0.76113015 -1.3867414 -1.9597466 -1.5137815 -0.91636556 -1.1367757 3.9208055
-1.5551416 -1.6006374 -2.688476 -0.47003537 -0.6113343 -0.7203571 -0.034153208 -0.1775501
00000000: 8622 9d3e 1838 dc3f 28d6 e5bf 66d8 b5be
00000010: 30c2 83c0 1095 04c0 a803 45be 846e a2bf
00000020: aa54 d7bf 5354 54c0 3979 4d40 4384 80bf
00000030: 6af1 d1be af1f c0bf a2e5 613f 7337 0cc0
00000040: e43c 44bf 6dd9 42bf be80 b1bf fad8 fabf
00000050: 98c3 c1bf ef96 6abf de81 91bf 7aee 7a40
00000060: e10e c7bf b0e1 ccbf fe0f 2cc0 7aa8 f0be
00000070: 6880 1cbf 5369 38bf 3ce4 0bbd b2cf 35be

net.5.running_var f4 [32]
0.49704275 1.3203076 1.9499594 1.4836421 4.069224 1.7420878 0.8130812 0.9057383
1.9425986 2.45039 1.9683468 1.0848162 2.221412 1.7210699 0.8603846 2.4570098
1.4820511 1.3992184 1.1462585 1.164514 2.6989975 0.88566995 1.5848964 2.191354
1.3971486 1.4211572 3.0219145 1.1102779 1.3912208 1.8672041 0.9474912 1.2766535
00000000: 637c fe3e d7ff a83f 4598 f93f fce7 bd3f
00000010: 1537 8240 bcfc de3f 1726 503f 77de 673f
00000020: 12a7 f83f 31d3 1c40 caf2 fb3f 42db 8a3f
00000030: 9d2b 0e40 054c dc3f 2a42 5c3f a63f 1d40
00000040: dab3 bd3f 9719 b33f 99b8 923f cb0e 953f
00000050: 60bc 2c40 44bb 623f e3dd ca3f 253f 0c40
00000060: c4d5 b23f 7be8 b53f 0c67 4140 961d 8e3f
00000070: 8613 b23f 8b00 ef3f c98e 723f 6269 a33f

net.8.weight f4 [64, 32, 3, 3]
-0.14377409 -0.12164307 -0.10941734 -0.08582434 -0.062679425 -0.123466216 0.061727036 0.10187558
0.062152162 -0.021684881 0.02228348 0.012722183 -0.09580984 -0.15493925 -0.11881416 0.01775318
0.050525136 0.043141842 -0.113600664 -0.0388513 -0.10389047 -0.006553384 -0.041936986 -0.049039412
-0.020939779 -0.013349709 -0.05957263 -0.061157413 -0.12308432 -0.06321078 -0.090954095 -0.10476857
-0.12689768 -0.012130242 0.019294718 0.003739369 0.08018032 0.07650295 0.17241934 0.07410699
0.07829188 0.06475775 -0.0036545426 0.04399306 -0.010212776 -0.19206953 -0.16508512 -0.1917506
-0.09562201 -0.054134946 -0.04135397 -0.027742734 -0.062218975 -0.025455108 -0.03848274 -0.06732092
-0.033303246 -0.03836579 -0.041218843 -0.061285127 0.104751624 0.12966715 0.08822987 0.06629797
0.036541738 0.07773065 0.028945128 -0.07177734 -0.033210065 -0.12537232 -0.08034735 -0.0472453
0.057693932 -0.053848013 -0.039680008 0.02695809 0.051414248 -0.03401347 0.07450348 0.010664747
0.017347354 -0.100374475 -0.07603358 -0.023535537 0.010768868 0.007540179 -0.06301445 -0.059588887
-0.016129497 -0.033658374 0.06572503 0.06241568 -0.08841735 -0.12034696 -0.12703118 -0.1284359
0.104684696 0.010581576 0.008287073 -0.06299739 -0.025761962 -0.048811696 -0.018120244 0.022189835
-2.820805e-05 0.009672627 -0.04056937 0.009293329 -0.018028945 -0.04412242 -0.10726071 -0.070537865
-0.076571025 -0.09983355 0.023227194 0.01280529 0.048917107 0.03442662 0.023714676 0.018476123
0.022251165 0.026291534 0.04249147 8.8845096e-05 0.010031045 -0.024169125 -0.062468894 -0.05073388
-0.100431114 -0.06961278 -0.018518677 -0.071702935 -0.019456843 -0.01314672 -0.032988533 -0.16576546
-0.20057812 -0.19265923 -0.010849666 -0.009709453 -0.1044106 -0.077500604 -0.053520367 -0.15604666
0.03432372 -0.028838504 0.10113685 0.02788373 0.060671907 0.078216426 0.0045044958 0.017198697
-0.0036837482 -0.09093048 0.030894807 0.0025091467 -0.013977144 -0.013570802 0.0324843 0.032516137
-0.01453816 -0.009955765 -0.042445146 -0.0071256 -0.05331236 -0.16169776 -0.16280223 -0.14457852
0.03287771 0.09632593 0.09948586 0.27987015 0.22004867 0.28483945 0.107563645 0.10943183
0.048705004 0.04996311 0.0016853503 0.031401556 0.022047784 0.07962709 0.07833045 0.065522514
0.0616517 0.06849919 0.011942989 0.012964372 -0.0014526426 -0.10369213 0.02362605 0.04488622
-0.03439192 -0.001984906 -0.00378282 0.076920524 0.09498735 0.06589197 -0.06336795 -0.06897796
-0.066282645 -0.08093233 -0.08296447 -0.0743918 -0.023919147 -0.01991681 -0.04504676 0.0964412
0.20551656 0.03685414 0.058112714 0.13161865 -0.024877159 0.023185292 0.054823685 0.008910272
-0.03695663 -0.023397993 -0.010619927 -0.042738967 -0.04274953 -0.005442477 0.106137566 0.07652559
0.121354975 -0.04966857 -0.034684297 0.016055433 0.05173836 0.060564052 0.10695434 0.086068355
0.07962732 0.09343502 -0.18912563 -0.17983814 -0.06098941 -0.19119947 -0.097390965 -0.053648524
-0.11917016 -0.04502245 -0.018770501 -0.1353895 -0.13183847 -0.15418668 -0.1962441 -0.1631635
-0.20145075 -0.0054053892 -0.015320457 0.027322233 -0.19036569 -0.16207306 -0.05952448 -0.085526444
00000000: 8439 13be 0020 f9bd 3316 e0bd acc4 afbd
00000010: 125e 80bd dbdb fcbd 7dd5 7c3d 25a4 d03d
00000020: 4493 7e3d 7ea4 b1bc d88b b63c b470 503c
00000030: f337 c4bd 65a8 1ebe d754 f3bd 1e6f 913c
00000040: 72f3 4e3d 80b5 303d 77a7 e8bd 8a22 1fbd
00000050: 87c4 d4bd c5bd d6bb 1ec6 2bbd 8ddd 48bd
00000060: e689 abbc bdb8 5abc 6e02 74bd 3280 7abd
00000070: a213 fcbd a774 81bd 2446 babd e790 d6bd
00000080: 77f1 01be ecbd 46bc f50f 9e3c 3410 753b
00000090: 9435 a43d 94ad 9c3d b28e 303e 68c5 973d
000000a0: 7e57 a03d b69f 843d 0d81 6fbb 1132 343d
000000b0: 7d53 27bc e0ad 44be 130c 29be 455a 44be
000000c0: 79d5 c3bd 9bbc 5dbd c862 29bd bb44 e3bc
000000d0: 53d9 7ebd 3b87 d0bc 14a0 1dbd 8ddf 89bd
000000e0: fc68 08bd 7225 1dbd 17d5 28bd 1d06 7bbd
000000f0: 0588 d63d 77c7 043e ddb1 b43d 3bc7 873d
00000100: caac 153d 3f31 9f3d 551e ed3c ffff 92bd
00000110: 4707 08bd 9a61 00be 278d a4bd 4a84 41bd
00000120: 7950 6c3d bc8f 5cbd 8187 22bd 36d7 dc3c
00000130: bf97 523d b551 0bbd 4895 983d 31bb 2e3c
00000140: 0a1c 8e3c 2291 cdbd 7eb7 9bbd 99cd c0bc
00000150: e86f 303c 9b13 f73b b80d 81bd 7a13 74bd
00000160: 0222 84bc 5ddd 09bd d89a 863d 96a7 7f3d
00000170: 2814 b5bd 7878 f6bd 7614 02be b384 03be
00000180: ee64 d63d 595e 2d3c 81c6 073c c704 81bd
00000190: c00a d3bc c6ee 47bd e870 94bc 75c7 b53c
000001a0: 53a0 ecb7 f079 1e3c 112c 26bd 0c43 183c
000001b0: 70b1 93bc b6b9 34bd 81ab dbbd 2876 90bd
000001c0: 45d1 9cbd 8875 ccbd f546 be3c 47cd 513c
000001d0: 4e5d 483d ed02 0d3d 4845 c23c 3d5b 973c
000001e0: 1348 b63c 5861 d73c 890b 2e3d 5952 ba38
000001f0: 4159 243c 54fe c5bc 62df 7fbd 54ce 4fbd
00000200: d4ae cdbd 2591 8ebd 7bb4 97bc fdd8 92bd
00000210: f563 9fbc 5765 57bc fc1e 07bd 6cbe 29be
00000220: 5a64 4dbe 7648 45be ccc2 31bc 6614 1fbc
00000230: 3ad5 d5bd a3b8 9ebd 2c38 5bbd b2ca 1fbe
00000240: 0797 0c3d ba3e ecbc d620 cf3d 6c6c e43c
00000250: 1b83 783d ef2f a03d 739a 933b 48e4 8c3c
00000260: 0a6b 71bb c239 babd 1b17 fd3c 7f70 243b
00000270: 6400 65bc 1258 5ebc 420e 053d a42f 053d
00000280: 7631 6ebc 811d 23bc f6da 2dbd dd7d e9bb
00000290: 105e 5abd 1994 25be a1b5 26be 640c 14be
000002a0: c7aa 063d 8746 c53d 3ebf cb3d 244b 8f3e
000002b0: 7054 613e 7ad6 913e 544a dc3d cc1d e03d
000002c0: e67e 473d 1ea6 4c3d f9e6 dc3a eb9e 003d
000002d0: 8e9d b43c 8713 a33d b76b a03d ab30 863d
000002e0: 7e86 7c3d 4e49 8c3d 87ac 433c 8468 543c
000002f0: 9966 beba 8a5c d4bd 6b8b c13c 9dda 373d
00000300: 8bde 0cbd 3215 02bb 30e9 77bb 8288 9d3d
00000310: ba88 c23d 5ff2 863d 0ec7 81bd 5144 8dbd
00000320: 32bf 87bd d9bf a5bd 47e9 a9bd ba5a 98bd
00000330: 16f2 c3bc 9428 a3bc f482 38bd f782 c53d
00000340: ef72 523e 5ef4 163d 9907 6e3d 0ac7 063e
00000350: 2fcb cbbc 15ef bd3c cd8e 603d 64fc 113c
00000360: d65f 17bd 26ad bfbc 34ff 2dbc 0e0f 2fbd
00000370: 221a 2fbd ce56 b2bb a75e d93d 73b9 9c3d
00000380: f588 f83d 4571 4bbd 1f11 0ebd af86 833c
00000390: 9aeb 533d 0312 783d e10a db3d 9b44 b03d
000003a0: a613 a33d dc5a bf3d 26aa 41be 7d27 38be
000003b0: 08d0 79bd cbc9 43be ea74 c7bd 8ebe 5bbd
000003c0: 7c0f f4bd 7669 38bd 98c4 99bc 8ca3 0abe
000003d0: aa00 07be 1de3 1dbe 37f4 48be 5514 27be
000003e0: 1b49 4ebe b11f b1bb a702 7bbc e0d2 df3c
000003f0: 39ef 42be 7bf6 25be f1cf 73bd 7d28 afbd

net.8.bias f4 [64]
0.040058516 -0.03977022 0.028670456 -0.027012182 0.054401387 0.036937665 0.038667656 -0.02663938
-0.04878 0.05003346 -0.038948264 0.04037909 0.07680294 -0.014258267 0.04154964 0.0141061805
0.056691673 -0.07192568 0.041236598 0.030453878 0.015778128 -0.011564992 -0.007097993 0.026163006
-0.05080032 -0.0075651444 -0.06665979 0.037075166 0.022640774 -0.02480939 0.02332121 0.021162976
0.051863756 0.055500157 0.04288133 -0.010718273 0.0049376623 0.027459621 -0.0033083973 -0.032043174
0.019405087 0.015377546 0.010966638 -0.046904664 0.029751223 -0.005245268 -0.09419925 -0.033051096
-0.011535368 -0.011458489 -0.041084673 0.009945813 -0.0068952558 -0.020423666 0.024665449 -0.010376407
-0.078359716 -0.0800294 -0.06978746 -0.038211524 -0.06949605 -0.038705375 0.0074918186 0.064282745
00000000: 6614 243d 19e6 22bd 4ede ea3c a748 ddbc
00000010: fdd3 5e3d f34b 173d fa61 1e3d d43a dabc
00000020: 8acd 47bd e3ef 4c3d 3788 1fbd 8b64 253d
00000030: dc4a 9d3d 829b 69bc f52f 2a3d 9c1d 673c
00000040: 8735 683d c54d 93bd b5e7 283d 697a f93c
00000050: 2241 813c 187b 3dbc 4896 e8bb cd53 d63c
00000060: ff13 50bd 08e5 f7bb ee84 88bd 21dc 173d
00000070: 2579 b93c 103d cbbc 1f0c bf3c fa5d ad3c
00000080: 176f 543d 2254 633d 55a4 2f3d b29b 2fbc
00000090: 1dcc a13b 00f3 e03c b2d1 58bb b43f 03bd
000000a0: 6bf7 9e3c 1af2 7b3c 6aad 333c 1b1f 40bd
000000b0: d6b8 f33c 7fe0 abbb 89eb c0bd 9660 07bd
000000c0: d7fe 3cbc 63bc 3bbc 6748 28bd c3f3 223c
000000d0: 99f1 e1bb 884f a7bc 320f ca3c ce01 2abc
000000e0: 0f7b a0bd 74e6 a3bd baec 8ebd b083 1cbd
000000f0: f253 8ebd 8789 1ebd ee7d f53b aca6 833d

net.9.weight f4 [64]
1.0606685 1.0316103 1.1370878 1.186529 1.026453 1.1518081 1.0424029 1.103651
1.1134984 1.1503496 1.1176324 1.0976439 1.1070566 1.2340677 1.1137534 1.0805476
1.072901 1.0836257 1.0782775 1.1357167 1.1025329 0.988067 1.1738483 1.1041386
1.043626 1.1406199 1.0001489 1.2846134 1.0003304 1.0340203 1.2193758 1.1866848
1.0750475 1.0381806 1.1089963 1.0450631 1.2079773 1.1655813 1.1366508 1.096422
1.1104598 1.0410597 1.2452866 1.2562999 1.0246512 1.0906045 1.0972654 1.0884788
1.1267045 1.059838 1.0572501 1.0460881 1.1047366 1.0724214 1.2184473 1.0932735
1.0584615 1.1936163 1.0604308 1.2080556 1.1193944 1.1719837 1.2139435 1.0877203
00000000: fcc3 873f ce0b 843f 188c 913f 2fe0 973f
00000010: d062 833f 736e 933f 756d 853f 7044 8d3f
00000020: 1e87 8e3f a83e 933f 940e 8f3f 987f 8c3f
00000030: 08b4 8d3f eef5 9d3f 798f 8e3f 624f 8a3f
00000040: d254 893f 3fb4 8a3f ff04 8a3f 2a5f 913f
00000050: cc1f 8d3f f5f1 7c3f a940 963f 6a54 8d3f
00000060: 8995 853f d5ff 913f e104 803f 366e a43f
00000070: d40a 803f c75a 843f 8214 9c3f 4ae5 973f
00000080: 289b 893f 1ae3 843f 97f3 8d3f a1c4 853f
00000090: 009f 9a3f c531 953f c67d 913f 8e57 8c3f
000000a0: 8c23 8e3f 7241 853f 8d65 9f3f 6fce a03f
000000b0: c527 833f ee98 8b3f 3173 8c3f 4653 8b3f
000000c0: da37 903f c6a8 873f f953 873f 37e6 853f
000000d0: 0268 8d3f 1b45 893f 15f6 9b3f 63f0 8b3f
000000e0: ab7b 873f 6bc8 983f 32bc 873f 91a1 9a3f
000000f0: 5148 8f3f 9003 963f 8062 9b3f 6b3a 8b3f

net.9.bias f4 [64]
-0.19624262 -0.23589067 -0.20159176 -0.3100216 -0.16232735 -0.24127242 -0.20490548 -0.23054309
-0.24410246 -0.22677535 -0.16332065 -0.23960483 -0.14221017 -0.14696805 -0.1761841 -0.27592155
-0.2410222 -0.26392907 -0.087164 -0.1306314 -0.18214989 -0.19568615 -0.22493911 -0.17097192
-0.19343287 -0.16517939 -0.20503873 -0.12295855 -0.201472 -0.23736721 -0.10497245 -0.20547444
-0.16149528 -0.22744071 -0.09427764 -0.18482308 -0.31534678 -0.10045555 -0.2241974 -0.11687922
-0.21610337 -0.14960286 -0.27888474 -0.10013867 -0.19984122 -0.11214901 -0.16030367 -0.27202898
-0.18224543 -0.21417472 -0.112261616 -0.22329035 -0.06837383 -0.16610067 -0.26733467 -0.23217376
-0.31709963 -0.1384397 -0.24732345 -0.19666062 -0.29153842 -0.16553995 -0.13224918 -0.13419762
00000000: d3f3 48be 538d 71be 126e 4ebe 27bb 9ebe
00000010: 2439 26be 1e10 77be bed2 51be 7d13 6cbe
00000020: fff5 79be cc37 68be 873d 27be f85a 75be
00000030: 8b9f 11be cb7e 16be 9b69 34be 9745 8dbe
00000040: 86ce 76be b621 87be 0a83 b2bd 3dc4 05be
00000050: 8085 3abe f361 48be 7056 66be 4313 2fbe
00000060: 4413 46be c924 29be acf5 51be b1d1 fbbd
00000070: ad4e 4ebe 6410 73be ccfb d6bd e467 52be
00000080: 055f 25be 38e6 68be a314 c1bd 4342 3dbe
00000090: 2275 a1be a4bb cdbd 0194 65be 5f5e efbd
000000a0: 344a 5dbe 7e31 19be fbc9 8ebe 8115 cdbd
000000b0: 2da3 4cbe 61ae e5bd a526 24be 6247 8bbe
000000c0: 8c9e 3abe 9e50 5bbe 6be9 e5bd 3aa6 64be
000000d0: 9407 8cbd 4b16 2abe 17e0 88be f5be 6dbe
000000e0: e25a a2be 23c3 0dbe 5c42 7dbe 6761 49be
000000f0: 8644 95be 4e83 29be 546c 07be 1a6b 09be

net.9.running_mean f4 [64]
-2.224339 -0.2838808 3.7636576 1.1942499 -2.0954711 0.63948214 -0.50490916 -0.4942615
-1.5438441 0.06993301 -0.30123922 -0.70515394 -1.4842283 -0.40637058 -0.18447395 0.8932226
-0.4987104 3.9884624 -0.3344426 -1.0087842 1.391442 -3.336029 2.1017966 -1.69275
1.4707391 -1.8627523 -4.080998 2.9550507 -5.1063375 -0.28596622 2.868668 2.189342
-0.8772898 -2.0364885 -1.0424492 -1.31916 0.7097449 0.38526294 2.1438403 -0.8769779
0.36897397 1.740277 1.2238414 -1.4060336 -1.0525808 3.565247 -1.3771255 -0.15208088
-1.6622974 -1.7192967 1.3372223 -0.8803059 -0.83900833 -3.6467977 1.4824649 0.6787269
0.26638412 -1.1680111 -1.1254865 0.8828133 2.7472088 0.59980714 0.69526756 0.24853122
00000000: 925b 0ec0 d358 91be c4df 7040 2edd 983f
00000010: 331c 06c0 1ab5 233f ba41 01bf d80f fdbe
00000020: af9c c5bf 0a39 8f3d 073c 9abe f884 34bf
00000030: 31fb bdbf ce0f d0be bde6 3cbe 3caa 643f
00000040: f856 ffbe f842 7f40 0f3c abbe d71f 81bf
00000050: c51a b23f 8081 55c0 d683 0640 08ac d8bf
00000060: 2e41 bc3f ab6e eebf 8997 82c0 8d1f 3d40
00000070: 1e67 a3c0 2a6a 92be 4298 3740 2e1e 0c40
00000080: 1096 60bf d455 02c0 fa6e 85bf 3cda a8bf
00000090: d7b1 353f 2f41 c53e ae34 0940 a081 60bf
000000a0: 28ea bc3e 66c1 de3f d6a6 9c3f e9f8 b3bf
000000b0: f8ba 86bf 022d 6440 a645 b0bf 17bb 1bbe
000000c0: 29c6 d4bf ea11 dcbf 1a2a ab3f ba5b 61bf
000000d0: 40c9 56bf 2265 69c0 69c1 bd3f 0cc1 2d3f
000000e0: 8063 883e 6381 95bf f10f 90bf 0d00 623f
000000f0: 45d2 2f40 f68c 193f 0efd 313f f87e 7e3e

net.9.running_var f4 [64]
1.2127335 1.5394032 2.6018603 0.7496351 2.2166712 0.98383164 1.5839748 1.1425092
1.0390849 1.0152494 0.85859936 1.7865547 2.444177 1.9379126 1.0445411 1.0110805
1.4909087 1.9544276 1.1019953 1.245982 1.0998361 1.1199387 1.878264 1.1177095
1.3197036 1.3663045 1.4819895 1.0793542 2.1002998 1.1333963 1.0677917 1.0121092
1.1310023 1.4644275 1.0876191 0.764135 0.5452325 0.9354455 1.2688575 1.3870075
0.9608725 1.8541076 0.6764047 0.9113781 1.8398203 2.291766 1.0910373 1.4975793
2.344558 1.262797 1.6025527 1.0471088 1.1070709 1.5018377 1.3908873 1.054352
1.1495328 1.1673962 1.069493 1.0183221 1.0771664 1.3202577 1.0937717 1.4811586
00000000: da3a 9b3f 2a0b c53f e184 2640 16e8 3f3f
00000010: f1dd 0d40 64dc 7b3f b0bf ca3f be3d 923f
00000020: bc00 853f b1f3 813f 2bcd 5b3f d3ad e43f
00000030: 656d 1c40 850d f83f 86b3 853f 166b 813f
00000040: 19d6 be3f af2a fa3f 2f0e 8d3f 577c 9f3f
00000050: 6ec7 8c3f 275a 8f3f f46a f03f 1b11 8f3f
00000060: 0cec a83f 11e3 ae3f d5b1 bd3f 4728 8a3f
00000070: 506b 0640 2113 913f 66ad 883f cb8c 813f
00000080: afc4 903f 5c72 bb3f 1a37 8b3f 5a9e 433f
00000090: 5b94 0b3f 5b79 6f3f ec69 a23f 7689 b13f
000000a0: bdfb 753f 6653 ed3f dc28 2d3f 1350 693f
000000b0: 3b7f eb3f 4bac 1240 1ca7 8b3f aeb0 bf3f
000000c0: 3d0d 1640 55a3 a13f 7220 cd3f a907 863f
000000d0: 80b4 8d3f 383c c03f 9808 b23f 02f5 863f
000000e0: e423 933f 3d6d 953f 26e5 883f 6158 823f
000000f0: 97e0 893f 34fe a83f b600 8c3f 9b96 bd3f

net.13.weight f4 [128, 1024]
-0.018064154 -0.012243929 0.054637585 0.12753195 -0.05528012 0.019523883 0.042446997 0.115362406
0.013121906 -0.008117576 -0.03321516 0.053417873 -0.04404587 0.017521488 -0.032608822 0.061568353
-0.08410351 -0.04414493 -0.066169076 -0.09571401 -0.058980558 -0.009260436 0.025810398 -0.054353915
-0.09760034 0.012506372 -0.019201247 -0.06401672 -0.023722982 0.079953946 0.13444829 0.06681859
0.043528747 0.014276981 0.053473644 -0.06444505 -0.006209607 -0.12087023 -0.025209825 0.009947408
0.12500624 0.06826858 0.018096352 0.16648354 0.057929996 -0.02166757 -0.11974982 0.09536169
-0.10223569 -0.11793094 -0.06795928 -0.11334641 0.007060598 0.036713082 0.0045428616 0.024371292
-0.07424237 -0.0289316 -0.041761443 -0.041685265 -0.13759553 -0.07583266 0.009984658 0.11238584
0.0011650941 -0.026455712 0.015072186 0.034856748 0.11961007 0.12110366 0.06634747 0.20600839
-0.026033781 -0.026346037 0.02992789 0.17164011 -0.11648191 -0.07113144 -0.060682762 0.15559201
-0.09274786 -0.05964607 -0.052661832 -0.17389664 0.047260024 0.07954684 0.05785665 0.046530303
-0.049846925 -0.024644349 -0.04777691 -0.046181325 -0.11854717 -0.116201065 -0.10897473 -0.056115594
0.07185646 0.057281718 0.079530306 0.08995515 0.020842288 0.02884727 -0.035684966 0.10082498
-0.01912741 -0.07178184 -0.031046292 0.13244809 -0.0030051772 -0.043446887 -0.08250237 0.19285677
-0.18080398 -0.094365425 -0.13294153 -0.12632816 -0.044435903 0.03456567 -0.05594448 0.05456106
0.025593525 0.068119034 0.051930726 -0.059229843 -0.099061705 -0.070912376 -0.05154721 0.03385003
-0.091878615 0.036073357 -0.09908276 -0.010942659 0.025188753 0.07474517 0.051147025 0.11888294
0.0773065 0.13774024 -0.012108175 0.08832025 0.019404227 0.089321926 0.026925907 0.16703974
-0.2994627 -0.12133071 -0.24621975 -0.35126016 -0.10643778 -0.11766457 -0.025888609 -0.18664406
-0.19163825 -0.12721014 -0.16026552 -0.07059015 -0.09569117 -0.011769026 -0.09038575 0.010370683
-0.17547506 -0.059620705 -0.0024984688 -0.22438663 0.0013752436 0.015692942 0.055354804 0.008047247
-0.028187465 -0.012187167 0.03008294 -0.040579695 -0.10467243 0.052605137 0.11370468 -0.10914204
0.057740036 0.059801966 0.022575859 0.09037962 -0.0471924 0.0956284 -0.041043922 0.041177846
-0.16832268 -0.20123117 0.010533345 0.079461835 -0.039182886 -0.12919264 -0.087403536 0.046932932
-0.038803782 -0.061341465 -0.03613718 -0.095225655 0.04906506 0.11169389 0.078760214 0.0053535854
-0.10592971 -0.03195141 -0.013048446 -0.065586485 -0.026835084 0.04138934 0.11713775 -0.15850051
-0.024458425 -0.0415114 -0.011626876 0.05304514 0.004558336 -0.16149023 -0.10585633 0.032794926
0.15818195 -0.0089152 0.17590302 -0.0021841933 0.02141209 -0.12454637 0.0639891 0.0808123
-0.042812657 -0.060447533 6.7489077e-06 0.07505775 0.04397093 0.02574821 0.0037763624 -0.03657862
-0.015793126 0.0067712 -0.008079234 0.006702886 0.061939754 0.07104705 0.06739824 0.06499067
-0.07346179 0.030726021 0.023154838 -0.031344496 0.018871296 0.06932873 0.06022173 0.008648811
-0.015697207 0.02170148 -0.011078214 -0.018479977 -0.051314633 0.1253039 0.068794414 0.107902884
00000000: 47fb 93bc c39a 48bc a9cb 5f3d bc97 023e
00000010: 686d 62bd 8df0 9f3c e7dc 2d3d 2043 ec3d
00000020: 43fd 563c 95ff 04bc 9f0c 08bd b3cc 5a3d
00000030: 7169 34bd 3989 8f3c d490 05bd 192f 7c3d
00000040: 763e acbd 50d1 34bd a783 87bd b505 c4bd
00000050: 9995 71bd 15b9 17bc 5470 d33c 36a2 5ebd
00000060: b0e2 c7bd 87e7 4c3c ef4b 9dbc 331b 83bd
00000070: b356 c2bc e5be a33d d0ac 093e 2fd8 883d
00000080: 334b 323d 00ea 693c 2e07 5b3d c4fb 83bd
00000090: f579 cbbb d08a f7bd d684 cebc 74fa 223c
000000a0: a301 003e 66d0 8b3d cd3e 943c a97a 2a3e
000000b0: 0148 6d3d 3080 b1bc 653f f5bd fd4c c33d
000000c0: f260 d1bd c785 f1bd 3c2e 8bbd 2a22 e8bd
000000d0: 975c e73b 7560 163d 49dc 943b 4ea6 c73c
000000e0: 620c 98bd f601 edbc 0c0e 2bbd 2bbe 2abd
000000f0: d8e5 0cbe 274e 9bbd b196 233c 8c2a e63d
00000100: 12b6 983a a6b9 d8bc 54f1 763c f3c5 0e3d
00000110: 20f6 f43d 3205 f83d 2fe1 873d ddf3 523e
00000120: cc44 d5bc a5d3 d7bc 562b f53c 6dc2 2f3e
00000130: 118e eebd 5cad 91bd 7d8e 78bd 8353 1f3e
00000140: 97f2 bdbd 704f 74bd efb3 57bd f611 32be
00000150: ba93 413d 74e9 a23d 18fb 6c3d 8f96 3e3d
00000160: 4a2c 4cbd f2e2 c9bc b9b1 43bd a128 3dbd
00000170: dcc8 f2bd d3fa edbd 252e dfbd 77d9 65bd
00000180: 7b29 933d 3ca0 6a3d c9e0 a23d 683a b83d
00000190: 72bd aa3c 1c51 ec3c 662a 12bd 547d ce3d
000001a0: 16b1 9cbc 5b02 93bd cb54 febc 79a0 073e
000001b0: 82f2 44bb 5df5 31bd 01f7 a8bd 3f7c 453e
000001c0: ae24 39be a942 c1bd d321 08be 2b5c 01be
000001d0: 6c02 36bd bb94 0d3d 0a26 65bd 6b7b 5f3d
000001e0: 83a9 d13c fe81 8b3d 50b5 543d fe9a 72bd
000001f0: dde0 cabd 823a 91bd 2b23 53bd 54a6 0a3d
00000200: db2a bcbd a8c1 133d e7eb cabd d748 33bc
00000210: a558 ce3c ff13 993d 8b7f 513d e678 f33d
00000220: df52 9e3d c70b 0d3e 5e61 46bc 3fe1 b43d
00000230: 9df5 9e3c 6aee b63d b893 dc3c 770c 2b3e
00000240: 2d53 99be 3c7c f8bd 0821 7cbe 5fd8 b3be
00000250: 0dfc d9bd 1ffa f0bd 5914 d4bc 9f1f 3fbe
00000260: d13c 44be 6043 02be a51c 24be 9291 90bd
00000270: bbf9 c3bd dfd2 40bc 2a1c b9bd cce9 293c
00000280: bcaf 33be d734 74bd 5abd 23bb 9cc5 65be
00000290: 8541 b43a 7c8e 803c b8bb 623d 9ad8 033c
000002a0: 66e9 e6bc afac 47bc 7f70 f63c e536 26bd
000002b0: 805e d6bd 7c78 573d 00de e83d dd85 dfbd
000002c0: d180 6c3d e8f2 743d 02f1 b83c f318 b93d
000002d0: d14c 41bd d3d8 c33d ac1d 28bd 1aaa 283d
000002e0: c85c 2cbe 8b0f 4ebe 0d94 2c3c e3bc a23d
000002f0: 3c7e 20bd 134b 04be a000 b3bd bf3c 403d
00000300: b7f0 1ebd 3041 7bbd 9404 14bd ab05 c3bd
00000310: 72f8 483d c4bf e43d 094d a13d 216d af3b
00000320: adf1 d8bd 7bdf 02bd 26c9 55bc 3552 86bd
00000330: 40d5 dbbc de87 293d ebe5 ef3d f54d 22be
00000340: 095d c8bc dc07 2abd a77e 3ebc dc45 593d
00000350: 185e 953b b25d 25be 34cb d8bd f953 063d
00000360: 73fa 213e 0f11 12bc ec1f 343e af24 0fbb
00000370: 6868 af3c 2b12 ffbd b80c 833d eb80 a53d
00000380: 535c 2fbd d597 77bd ad74 e236 e1b7 993d
00000390: dd1a 343d e9ed d23c d97c 773b 77d3 15bd
000003a0: 9660 81bc f1e0 dd3b c35e 04bc e2a3 db3b
000003b0: 8ab4 7d3d 1e81 913d 1708 8a3d d419 853d
000003c0: 2373 96bd 23b5 fb3c 37af bd3c 1663 00bd
000003d0: fa97 9a3c 39fc 8d3d 10ab 763d beb3 0d3c
000003e0: 6e97 80bc 4dc7 b13c 6681 35bc 5263 97bc
000003f0: 4b2f 52bd aa4f 003e 16e4 8c3d 30fc dc3d

net.13.bias f4 [128]
0.009318247 -0.013237364 -0.01551699 0.0026178055 -0.027030952 0.010154846 0.006610249 0.03878608
-0.009885349 -0.0046081445 -0.03647982 -0.0211203 0.029213414 -0.027572075 0.02685553 -0.029250657
-0.016222648 -0.036797974 0.0108110765 -0.044648636 0.008317863 -0.018702492 0.017335398 0.03454682
-0.0141952075 0.008350238 0.02878183 0.018017188 0.021271637 -0.015338421 -0.007114431 -0.045102097
0.09345367 0.0027324965 0.021955293 -0.017556276 -0.013068469 -0.0039697546 -0.033622116 -0.017019903
0.007725353 0.013626526 -0.030171733 -0.03654987 -0.030432435 0.0045982823 0.022432894 -0.012625461
0.07509129 -0.013760226 0.072166465 -0.012952912 0.01676863 0.023747621 -0.014045247 0.1204753
0.012550123 -0.028100546 -0.028203022 0.029531354 -0.0116158025 0.016704734 0.0052922065 -0.010309919
0.006858991 0.031280898 -0.015502275 -0.013360878 -0.0012770602 0.008857505 0.029273842 -0.010302077
0.0023823774 -0.010430949 -0.04115296 0.072709344 -0.057011526 -0.0061824312 -0.027021972 -0.008286277
-0.03711011 0.021878645 -0.03282746 -0.026137413 0.005138214 -0.033878177 -0.014799321 -0.023874376
0.0050595393 0.014053885 0.0196102 0.040235147 -0.0035169744 0.005889932 -0.027821144 0.02099735
-0.012883057 -0.037265655 0.020673564 0.023735167 0.008160637 -0.013328026 -0.021336228 -0.030681878
0.00043490282 0.021717055 0.044818603 -0.010827657 0.015184942 -0.03390929 0.00067639205 0.016212514
0.0036940617 0.009459886 0.0068763685 0.0045037013 0.03683129 0.013706558 -0.013983458 -0.03368854
-0.0013811451 0.042084433 -0.0021444266 0.0053507104 -0.024400776 0.010501707 -0.016603434 -0.009906115
00000000: 90ab 183c 87e1 58bc f93a 7ebc 7d8f 2b3b
00000010: 0470 ddbc 8360 263c ca9a d83b 27de 1e3d
00000020: 29f6 21bc ebff 96bb dd6b 15bd 7b04 adbc
00000030: f850 ef3c d5de e1bc 2100 dc3c 139f efbc
00000040: 5ce5 84bc 79b9 16bd f120 313c 7de1 36bd
00000050: a547 083c f835 99bc f702 8e3c f780 0d3d
00000060: 0493 68bc 70cf 083c dfc7 eb3c c898 933c
00000070: db41 ae3c 004e 7bbc 2c20 e9bb fabc 38bd
00000080: a364 bf3d af13 333b 96db b33c 2ed2 8fbc
00000090: 221d 56bc b714 82bb 58b7 09bd 536d 8bbc
000000a0: f524 fd3b cb41 5f3c b62a f7bc 51b5 15bd
000000b0: 714d f9bc 30ad 963b 30c5 b73c 06db 4ebc
000000c0: 76c9 993d 9272 61bc 03cc 933d 7338 54bc
000000d0: 5e5e 893c 5f8a c23c 091e 66bc c1bb f63d
000000e0: 089f 4d3c 1e33 e6bc 060a e7bc bdeb f13c
000000f0: 3550 3ebc 5ed8 883c 3f6a ad3b efea 28bc
00000100: 63c1 e03b 6620 003d 41fd 7dbc 96e7 5abc
00000110: 0863 a7ba 121f 113c b2cf ef3c 0bca 28bc
00000120: a921 1c3b 92e6 2abc 0290 28bd a3e8 943d
00000130: eb84 69bd fe95 cabb 2f5d ddbc 2ac3 07bc
00000140: c500 18bd d83a b33c 1676 06bd 211e d6bc
00000150: 775e a83b d8c3 0abd da78 72bc 3294 c3bc
00000160: 7eca a53b 4442 663c 92a5 a03c 9ccd 243d
00000170: 0a7d 66bb 5500 c13b 2be9 e3bc a202 ac3c
00000180: 7513 53bc dfa3 18bd 9b5b a93c 4170 c23c
00000190: 31b4 053c cb5d 5abc 50c9 aebc 9058 fbbc
000001a0: ab03 e439 f7e7 b13c b693 373d 7c66 31bc
000001b0: 43ca 783c 78e4 0abd e74f 313a 1bd0 843c
000001c0: 1218 723b a3fd 1a3c 2953 e13b c993 933b
000001d0: 68dc 163d 7991 603c e01a 65bc fffc 09bd
000001e0: 8a07 b5ba ba60 2c3d 8289 0cbb 0355 af3b
000001f0: 23e4 c7bc 5a0f 2c3c ed03 88bc 424d 22bc

net.16.weight f4 [16, 128]
-0.06507773 -0.07970424 -0.21385932 -0.070703715 0.039660018 0.2680416 -0.05067276 -0.081265815
0.11404644 0.052968733 -0.0030184914 0.021912836 0.20392196 -0.038811106 0.03176265 -0.15233211
-0.071625665 0.00039474765 0.0044716015 -0.14523113 0.04021201 -0.059498418 -0.060172852 0.02719868
-0.01995664 0.008770605 -0.32297543 -0.048554935 -0.05187123 -0.06463017 -0.068695985 0.14983477
-0.48465934 -0.07282155 0.16305336 -0.017433327 0.042649046 0.08075374 -0.077801906 0.080844045
-0.08269455 -0.029852612 0.072103254 -0.2706643 0.0026299204 0.031332284 0.07565991 0.14851855
0.10696333 -0.043545015 -0.34060723 -0.061143797 0.24984863 0.053776223 -0.15237245 0.148253
0.050605025 -0.010798082 0.030075276 -0.46879843 -0.042947832 -0.50292224 -0.019991226 -0.0594273
-0.05897206 0.20682508 -0.035046633 0.0049177683 -0.19217947 -0.0321122 0.06420611 0.03141235
-0.041136865 -0.49580562 -0.041506514 -0.22449107 0.020194383 -0.045794714 -0.057951193 -0.045997683
-0.026558382 -0.01798535 0.05164229 0.056639075 -0.028955124 -0.04597527 -0.06746154 0.028542308
0.057375133 0.024335824 0.040862333 0.1007641 -0.062584236 0.13446099 0.029880833 -0.09932785
0.06975139 -0.07633617 0.17273654 0.1463664 0.024669837 -0.0336646 -0.031056274 0.02409472
-0.04570183 -0.06069448 0.17830406 -0.106518626 0.14762121 -0.031076776 -0.22610015 -0.08196378
-0.06348646 0.04180811 -0.1207831 0.088338174 0.025055293 0.025945539 0.033067547 -0.34532878
0.063009076 0.14146835 0.062404398 0.16851589 -0.044160064 -0.072676376 -0.0126674455 -0.015569718
0.116377026 -0.014915767 -0.09272786 -0.03526849 0.08434303 0.14723334 0.017437853 0.06878684
0.08875743 -0.0729964 -0.07712909 0.009760721 0.072290584 -0.007761223 0.13831745 0.16902587
0.06462737 -0.0610419 -0.060429964 0.18137436 -0.035100013 -0.016019225 0.039305717 0.029780122
-0.05336289 0.071858644 0.12971406 -0.019228628 0.012594243 -0.07938356 0.0214589 0.16556713
-0.37180105 -0.049239002 -0.3277754 0.21210158 -0.043358415 -0.062379457 -0.00800749 0.009067083
0.07330404 0.048909064 -0.02307301 0.06038763 -0.024582367 -0.029778048 0.023090968 0.096674174
-0.19594286 0.062891 -0.09214211 0.07359484 -0.15715507 -0.058008403 0.14767145 -0.10490641
0.030307017 0.06546749 0.08532706 0.014363652 -0.037840307 0.07443673 0.07921843 -0.003988487
-0.0708594 -0.16697612 0.08304581 -0.031987377 -0.006190337 -0.108724535 -0.04006443 0.046397384
-0.028688768 0.063357085 -0.009805073 -0.07448724 -0.0006937022 -0.04064907 -0.07313144 -0.013481743
-0.049230427 -0.064764954 -0.07490872 0.074176155 0.030039757 0.041215252 -0.024652136 -0.017154718
0.123322636 0.024393596 0.08002062 -0.24959907 -0.06687782 -0.022121124 0.049794797 0.26704642
-0.03766208 -0.0055530835 0.013965817 -0.08426048 -0.034554772 -0.026714273 0.002390339 -0.026101151
-0.07185985 -0.009363462 -0.33998144 0.123022735 0.07092905 -0.0037258107 0.11799527 0.07276718
-0.081637345 -0.079267114 0.15224595 0.047552798 0.010189958 0.07752255 0.0153642185 0.08783397
0.03339619 -0.042389832 0.044919264 -0.09635926 0.09294826 -0.076276705 -0.062076014 -0.024650745
00000000: 7947 85bd fa3b a3bd f0fd 5abe 1ccd 90bd
00000010: 8b72 223d c03c 893e 3d8e 4fbd b16e a6bd
00000020: 2e91 e93d bef5 583d e2d1 45bb 8c82 b33c
00000030: ebd0 503e 65f8 1ebd 8d19 023d f3fc 1bbe
00000040: 7ab0 92bd 22f6 ce39 8386 923b 78b7 14be
00000050: 59b5 243d 9db4 73bd cf77 76bd c4cf de3c
00000060: 1c7c a3bc 95b2 0f3c 095d a5be 8ae1 46bd
00000070: ed76 54bd d35c 84bd 7bb0 8cbd 496e 193e
00000080: 4525 f8be 7723 95bd 76f7 263e 56d0 8ebc
00000090: c4b0 2e3d 3862 a53d 9b56 9fbd 9091 a53d
000000a0: c35b a9bd 778d f4bc dfaa 933d 8394 8abe
000000b0: be5a 2c3b 4856 003d 95f3 9a3d 3f15 183e
000000c0: 970f db3d 425c 32bd 1264 aebe eb71 7abd
000000d0: 52d8 7f3e 7544 5c3d 8607 1cbe a2cf 173e
000000e0: 3747 4f3d 70ea 30bc 6d60 f63c 5906 f0be
000000f0: 11ea 2fbd 83bf 00bf a4c4 a3bc 0a6a 73bd
00000100: b08c 71bd f4c9 533e 0f8d 0fbd 3b25 a13b
00000110: b2ca 44be 1588 03bd 7e7e 833d 3caa 003d
00000120: 217f 28bd 3cda fdbe bc02 2abd fde0 65be
00000130: b16e a53c 3d93 3bbd 3b5e 6dbd 1168 3cbd
00000140: f790 d9bc 0356 93bc de86 533d 60fe 673d
00000150: 4c33 edbc 9150 3cbd 4729 8abd 8fd1 e93c
00000160: 3002 6b3d ec5b c73c 435f 273d 695d ce3d
00000170: 2a2c 80bd 24b0 093e a6c8 f43c 666c cbbd
00000180: d1d9 8e3d 2356 9cbd d9e1 303e 13e1 153e
00000190: 6618 ca3c e4e3 09bd ba69 febc 4a62 c53c
000001a0: d831 3bbd c69a 78bd 5795 363e 7026 dabd
000001b0: 042a 173e b994 febc cc86 67be a0dc a7bd
000001c0: 3005 82bd fb3e 2b3d 215d f7bd a5ea b43d
000001d0: c240 cd3c bd8b d43c d671 073d efce b0be
000001e0: e70a 813d 14dd 103e c19b 7f3d 6e8f 2c3e
000001f0: 2fe1 34bd 5ad7 94bd 1e8b 4fbc 2118 7fbc
00000200: 1457 ee3d 4361 74bc 1be8 bdbd b175 10bd
00000210: 0abc ac3d 56c4 163e d4d9 8e3c 1de0 8c3d
00000220: 75c6 b53d 237f 95bd dbf5 9dbd 6eeb 1f3c
00000230: 160d 943d db51 febb 17a3 0d3e 1e15 2d3e
00000240: 5b5b 843d 1207 7abd 6985 77bd 33ba 393e
00000250: 08c5 0fbd c03a 83bc 08ff 203d 71f5 f33c
00000260: 0c93 5abd a02a 933d c3d3 043e 5b85 9dbc
00000270: 1558 4e3c d993 a2bd 93ca af3c 6e8a 293e
00000280: b55c bebe d6ae 49bd 2dd2 a7be 2831 593e
00000290: 9898 31bd 9a81 7fbd d931 03bc 1a8e 143c
000002a0: 6e20 963d df54 483d 9c03 bdbc 0559 773d
000002b0: f660 c9bc 18f1 f3bc 4529 bd3c 1cfd c53d
000002c0: 3fa5 48be ffcc 803d 01b5 bcbd e4b8 963d
000002d0: 42ed 20be 389a 6dbd 2f37 173e 2cd9 d6bd
000002e0: 6c46 f83c d213 863d f4bf ae3d 8655 6b3c
000002f0: 70fe 1abd 4972 983d 463d a23d dbb1 82bb
00000300: bc1e 91bd cafb 2abe ec13 aa3d 3205 03bd
00000310: 4fd8 cabb f8aa debd 9a1a 24bd 2f0b 3e3d
00000320: b504 ebbc 5cc1 813d 75a5 20bc c48c 98bd
00000330: 91d9 35ba a47f 26bd f0c5 95bd 87e2 5cbc
00000340: d8a5 49bd 7da3 84bd be69 99bd abe9 973d
00000350: f015 f63c 53d1 283d 47f3 c9bc 0d88 8cbc
00000360: 9490 fc3d 14d5 c73c dae1 a33d e696 7fbe
00000370: 3df7 88bd 5c37 b5bc a1f5 4b3d 4fba 883e
00000380: 8e43 1abd a4f6 b5bb e2d0 643c c290 acbd
00000390: 4e89 0dbd e4d7 dabc 3ca7 1c3b 15d2 d5bc
000003a0: 422b 93bd 3569 19bc 0c12 aebe 58f3 fb3d
000003b0: 4043 913d bb2c 74bb 81a7 f13d f606 953d
000003c0: 7b31 a7bd cc56 a2bd 5de6 1b3e b9c6 423d
000003d0: c8f3 263c 25c4 9e3d 34ba 7b3c 4ce2 b33d
000003e0: 71ca 083d f6a0 2dbd 43fd 373d 0158 c5bd
000003f0: a85b be3d f636 9cbd 6b43 7ebd 5cf0 c9bc

net.16.bias f4 [16]
0.05556456 -0.1312879 0.08692793 0.0570512 0.22333452 -0.06898672 0.13061103 0.036217008
-0.89249355 -0.95061636 -0.84298927 -1.0726031 -1.0297405 -0.9510802 -0.9099421 -0.85072106
00000000: aa97 633d 5670 06be 4507 b23d 85ae 693d
00000010: ceb1 643e e948 8dbd e6be 053e 4958 143d
00000020: 757a 64bf 985b 73bf 25ce 57bf 0f4b 89bf
00000030: 89ce 83bf fe79 73bf f7f1 68bf dbc8 59bf
